simple_log_reg_state.pt (torch, 160671 bytes, 4 tensors)

layers.0.weight f4 [50, 784]
0	0xbd0940f0	-0.033509195
1	0x3d8bfdf2	0.068355456
2	0xbd56f20e	-0.052476935
3	0x3d6f2057	0.05838045
4	0xbcd5e3ba	-0.026109565
5	0xbd3e3ff1	-0.046447698
6	0x3ca5b150	0.02022615
7	0x3d0bf73c	0.034171328
8	0xbc8cb184	-0.01717449
9	0x3d85d017	0.065338306
10	0xbda9b893	-0.08287158
11	0x3d94866a	0.072522
12	0xbd9c0a37	-0.07619136
13	0x3cf1082d	0.029422844
14	0x3cd9f8c0	0.026607871
15	0x3c6daa64	0.014505956
16	0xbd81365c	-0.06309196
17	0x3d817c98	0.063225925
18	0xbd428356	-0.047488533
19	0xbd8d7d8a	-0.0690871
20	0x3c20e780	0.009820819
21	0x3d9b6490	0.0758754
22	0x3d2efb6a	0.042720236
23	0x3d40d95b	0.047082286
24	0xbd156f38	-0.03648302
25	0x3d656ac9	0.05601004
26	0xbd898d7a	-0.06716438
27	0xbc9e8a85	-0.01935316
28	0xbc9d2747	-0.019183768
29	0x3d36120f	0.044450816
30	0x3c436e4f	0.011928155
31	0xbd673c76	-0.056454144
32	0x3ceaa477	0.028642876
33	0x3d8a2379	0.06745047
34	0xbd03fdea	-0.032224573
35	0x3d939ab0	0.07207239
36	0x3cec3e6b	0.028838357
37	0xbd89692e	-0.067095146
38	0x3da278a8	0.079331696
39	0x3cf85890	0.030315667
40	0xbd8bb759	-0.0682208
41	0xbd29e650	-0.04147941
42	0xbd4d68a2	-0.050148614
43	0x3d94355e	0.072367415
44	0x3c45c48f	0.012070789
45	0xbd8f8ba0	-0.07009053
46	0xbb83d706	-0.0040234355
47	0xbd83489b	-0.06410333
48	0x3cf7f69a	0.030268956
49	0x3d635f06	0.055510543
50	0xbc445d0b	-0.011985074
51	0xbd7a02a4	-0.061037675
52	0x3d8c0ed1	0.068387635
53	0xbd14ec4f	-0.036358174
54	0x3c53ef64	0.012935493
55	0xbd243fbf	-0.040099856
56	0xbd79c3cd	-0.060977746
57	0x3d8ae34b	0.06781634
58	0x3d6983d7	0.057010498
59	0x3d512a7b	0.051065903
60	0x3d86aa33	0.06575432
61	0x3d962a18	0.073322475
62	0x3c873729	0.016505795
63	0x3c0e1f63	0.008674475
64	0xbd64a97d	-0.0558257
65	0xbcf7c2f2	-0.030244324
66	0x3d5e144e	0.054218583
67	0xbbd55887	-0.0065107974
68	0x3da64a0a	0.081195906
69	0x3d136173	0.035981607
70	0x3d85240a	0.065010145
71	0x3ce0701d	0.02739721
72	0xbd35b65f	-0.044363376
73	0xbca9a46d	-0.020708287
74	0x3d83d84f	0.06437742
75	0x3bfcb989	0.007712547
76	0xbcfb0228	-0.030640677
77	0x3d310c23	0.043224465
78	0xbd360c19	-0.04444513
79	0xbc8b97a6	-0.017040085
80	0xbdaf3131	-0.085543044
81	0x3cd31260	0.025765598
82	0x3ce38960	0.027775466
83	0x3c9febd5	0.019521633
84	0x3d3536b8	0.044241637
85	0x3d918fe5	0.07107524
86	0x3d5619bc	0.052270636
87	0x3c88d7ad	0.016704405
88	0x3ccce686	0.025012266
89	0xbd9b24d0	-0.07575381
90	0xbd9dc2c1	-0.07703162
91	0x3d3de320	0.04635918
92	0xb9f8e76a	-0.00047474663
93	0xbd93484b	-0.07191523
94	0xbc844b4d	-0.016149187
95	0x3d17cc78	0.03706023
96	0x3d3dcfda	0.0463408
97	0x3a2b2cad	0.00065297895
98	0xbc657534	-0.014004994
99	0xbdf48c3a	-0.119408086
100	0xbdf45be4	-0.11931589
101	0xbd70f6d8	-0.05882916
102	0xbd9846da	-0.07435389
103	0xbc3600fa	-0.011108631
104	0x3dad52e8	0.08463079
105	0x3d64d91a	0.055871107
106	0x3d12fbb5	0.035884578
107	0xb9a2d321	-0.0003105635
108	0x3da04505	0.078256644
109	0xbd7046d0	-0.058661282
110	0x3d86e691	0.06586946
111	0x3d8e561c	0.06950018
112	0x3c1cf783	0.009580496
113	0xbd8b79fb	-0.06810375
114	0xbcbfc427	-0.023408962
115	0x3da72518	0.08161372
116	0x3ce1ea7f	0.027577637
117	0x3d53305e	0.0515598
118	0x3d5581b3	0.052125644
119	0x3bf72a35	0.0075428733
120	0xbcc6162b	-0.024180492
121	0xbdac9db8	-0.0842852
122	0x3d134777	0.035956826
123	0xbc98b0a4	-0.018638916
124	0xbb8b0aff	-0.004243254
125	0xbc08f190	-0.008358374
126	0xbcf65fbc	-0.030074947
127	0x3c49d25a	0.012318218
128	0xb919e2e2	-0.00014675737
129	0xbd008b0f	-0.031382617
130	0xbdec8224	-0.1154826
131	0xbd725864	-0.059166327
132	0x3d946e9f	0.07247662
133	0xbcc01be6	-0.023450803
134	0x3d3950ce	0.045243077
135	0xbca27e2c	-0.019835554
136	0x3d595899	0.05306301
137	0xbcb5fddf	-0.022215782
138	0x3d9d6d97	0.07686918
139	0xbd9e3089	-0.07724101
140	0x3d38d184	0.045121685
141	0xbd624e25	-0.055250306
142	0x3c3343c0	0.010941446
143	0x3d58050e	0.052739196
144	0x3991674c	0.00027733517
145	0xbc97868c	-0.018496774
146	0xbbd7e2dc	-0.006588323
147	0xbd93f357	-0.07224148
148	0xbc262b31	-0.010142134
149	0x3ccfc2f5	0.025361517
150	0xbde8eb84	-0.11373046
151	0x3d8bbed2	0.068235055
152	0xbd07aeba	-0.033125617
153	0xbd642b65	-0.055705447
154	0xbb0fbfa8	-0.0021934304
155	0xbdb5a751	-0.08869804
156	0x3ccaae33	0.024741268
157	0xbaccc9ef	-0.0015624146
158	0x3d99ac4d	0.07503567
159	0x3d2c9572	0.04213471
160	0x3d2cc1f3	0.042177152
161	0x3d702746	0.058631204
162	0xbd36c5e2	-0.04462231
163	0xbd09c9cf	-0.033639725
164	0x3d6a92e2	0.057268985
165	0xbc52d3d3	-0.012867886
166	0xbdaa0f73	-0.08303728
167	0x3d8f05b8	0.06983513
168	0x3d43be12	0.047788687
169	0xbd82f3ee	-0.06394182
170	0x3d4741ef	0.048646864
171	0x3c8df713	0.017329728
172	0xbcf000bb	-0.029297223
173	0xbdb00633	-0.085949324
174	0xbde8edf6	-0.113735124
175	0xbc51e7da	-0.012811625
176	0xbd1a5cd0	-0.03768617
177	0x3a96df0d	0.0011510566
178	0xbdf17998	-0.1179077
179	0xbccf945d	-0.0253393
180	0x3d986458	0.07441014
181	0xbb4bf8ef	-0.0031123718
182	0x3d140a10	0.03614241
183	0x3de6902a	0.11257966
184	0x3cdcf6b9	0.026973115
185	0xbc6a62a0	-0.014305741
186	0xbb6b34e2	-0.0035889675
187	0x3da86e2f	0.08224141
188	0x3d34aca0	0.04410994
189	0x3c81fb45	0.015866885
190	0x3dc9bd5e	0.09850572
191	0x3c408427	0.011750258
192	0x3d9ffd93	0.07812037
193	0xbd8de34f	-0.06928121
194	0x3d065af9	0.032801602
195	0xbd8fb669	-0.07017214
196	0xbd1dc797	-0.03852042
197	0x3d6e01eb	0.058107298
198	0x3c438e46	0.011935776
199	0x3ca51d51	0.02015558
200	0xbc142781	-0.009042622
201	0xbc2571f2	-0.010097967
202	0xbe1fadcb	-0.1559364
203	0xbe0b92d0	-0.13630223
204	0xbd99f41a	-0.07517262
205	0xbdc75997	-0.09733885
206	0xbd63cee2	-0.05561722
207	0x3d2e968c	0.04262404
208	0x3d6459cb	0.055749696
209	0x3c803f27	0.015655113
210	0x3ddcf203	0.107883476
211	0x3d90868b	0.07056912
212	0xbc00cb9d	-0.007861045
213	0xbc5d3a01	-0.013502599
214	0xbd2225bc	-0.039586768
215	0x3c84061e	0.016116198
216	0x3c45242f	0.012032553
217	0x3d868d36	0.065699026
218	0x3c83c21b	0.016083768
219	0x3cc718c6	0.024303805
220	0x3dec02e6	0.1152399
221	0x3d805052	0.0626532
222	0x3cabce3f	0.02097237
223	0x3d836b0f	0.06416904
224	0xbd962ce7	-0.07332783
225	0x3d8a8e13	0.0676538
226	0x3dc5b8ac	0.09654364
227	0x3b0e7a8e	0.0021740529
228	0xbdec7fc8	-0.1154781
229	0xbdd3fc5d	-0.10350869
230	0xbdda0ddc	-0.10647175
231	0x3c707009	0.014675149
232	0x3c80e532	0.015734289
233	0xbc459e8b	-0.012061725
234	0x3cf17784	0.029475935
235	0xbd7894df	-0.06068885
236	0x3c3d4f78	0.011554591
237	0x3c7718cc	0.015081596
238	0xb906a825	-0.00012841875
239	0xbd16cbc5	-0.036815424
240	0x3d43ed69	0.047833834
241	0xbc9c68f2	-0.01909301
242	0xbd38d88a	-0.045128383
243	0xbdd37822	-0.10325648
244	0xbc591cf3	-0.013251531
245	0x3d678904	0.056527153
246	0xbcdbeaf2	-0.02684543
247	0x3d3d10c4	0.046158567
248	0x3ddba348	0.10724503
249	0x3d83dee5	0.06438998
250	0xbd8f92f7	-0.07010453
251	0x3d473455	0.048633892
252	0xbbca0217	-0.0061648
253	0xbd9156be	-0.07096623
254	0xbcea1d18	-0.028578326
255	0xbd046754	-0.032325104

layers.0.bias f4 [50]
0	0xbdfcaaef	-0.123372905
1	0xbe0d20c2	-0.13782027
2	0xbe1bd9af	-0.15219758
3	0xbe177b2f	-0.14793085
4	0xbde29d47	-0.110651545
5	0xbdea593c	-0.11442801
6	0xbe0277db	-0.12741034
7	0xbdbb3b03	-0.09142115
8	0xbe114d34	-0.14189607
9	0xbde6b1d4	-0.11264387
10	0xbe13a422	-0.1441808
11	0xbddc0d34	-0.10744706
12	0xbe079595	-0.13240655
13	0xbe03bcbf	-0.1286497
14	0xbe07c418	-0.13258398
15	0xbe326e6e	-0.17424938
16	0xbdfecda1	-0.12441564
17	0xbe0f6984	-0.14005095
18	0xbdb72c59	-0.089440055
19	0xbdbda063	-0.09259107
20	0xbddb266f	-0.1070069
21	0xbe273a03	-0.16330723
22	0xbe0109dd	-0.12601419
23	0xbe079481	-0.13240243
24	0xbe09494b	-0.13406865
25	0xbe01c1a5	-0.12671526
26	0xbe0758b2	-0.13217428
27	0xbe1bf822	-0.15231374
28	0xbdf9204a	-0.12164362
29	0xbdc65793	-0.09684672
30	0xbdf16af4	-0.11787978
31	0xbdfa44f5	-0.12220184
32	0xbe0515a7	-0.12996541
33	0xbe127f4d	-0.14306374
34	0xbdefae49	-0.11703164
35	0xbe075ef9	-0.13219823
36	0xbe0f4c00	-0.13993835
37	0xbdfe0644	-0.12403539
38	0xbdfa13a3	-0.12210777
39	0xbdf2be27	-0.11852675
40	0xbe00e9d6	-0.12589201
41	0xbe13cd0b	-0.14433686
42	0xbdc5e4ba	-0.09662767
43	0xbe047a01	-0.12937166
44	0xbde63ca3	-0.11242034
45	0xbe0eafe5	-0.13934286
46	0xbdea0685	-0.11427025
47	0xbde5b2ea	-0.11215766
48	0xbdc84d4d	-0.09780369
49	0xbde31eab	-0.11089834

layers.1.weight f4 [10, 50]
0	0xbe6ac43b	-0.22926418
1	0x3eeae503	0.45877847
2	0x3f268510	0.6504679
3	0xbe5c7ca8	-0.21531928
4	0x3eacbc58	0.33737445
5	0x3e9913d9	0.29897955
6	0xbf090791	-0.5352717
7	0x3e5fa7f3	0.21841411
8	0x3e37b376	0.17939553
9	0x3d63af6b	0.055587213
10	0xbdce5d95	-0.10076443
11	0x3dbd0633	0.09229698
12	0xbd1bc8fe	-0.038033478
13	0xbec90f66	-0.3926956
14	0x3e70fdb8	0.23534286
15	0x3f4d3cf6	0.80171144
16	0x3eeb5da6	0.45969886
17	0xbd8aa5fa	-0.06769939
18	0x3ed5fab6	0.4179284
19	0xbe2707f3	-0.16311626
20	0x3e9f130c	0.3106922
21	0x3f392ba3	0.7233221
22	0x3e50e779	0.204008
23	0x3d1f69ce	0.038919263
24	0x3ee7910e	0.45227855
25	0xbeda0348	-0.42580628
26	0xbee31c74	-0.44357646
27	0x3f189539	0.59602696
28	0xb88d3d4e	-6.734823e-05
29	0x3ed44f59	0.41466787
30	0x3e215695	0.15755685
31	0xbe80f677	-0.25188038
32	0x3f2c3d1b	0.6728074
33	0xbdc6aa14	-0.097004086
34	0xbda89172	-0.082308665
35	0x3f2b4a3b	0.6691014
36	0xbe336d65	-0.175222
37	0xbf00c8f7	-0.5030665
38	0xbd8761a8	-0.06610423
39	0x3cf1a339	0.029496776
40	0x3e137047	0.14398299
41	0xbe70ea89	-0.23526968
42	0xbe9c2bab	-0.30502066
43	0xbec2bd18	-0.38034892
44	0xbf025d34	-0.50923467
45	0x3daf75e5	0.085674085
46	0xbef962a5	-0.48708072
47	0x3e29dd23	0.16588263
48	0x3ddb1c7a	0.10698791
49	0xbf1d3d93	-0.6142208
50	0x3e60e32f	0.21961664
51	0x3d888f2a	0.066679314
52	0x3e930a2c	0.28718698
53	0x3ee51f70	0.44750547
54	0xbe999dba	-0.30003148
55	0xbf2eae4f	-0.68234724
56	0x3ec9eadc	0.39436996
57	0xbf0d783b	-0.5526158
58	0x3e99f5ff	0.30070493
59	0xbe01c50d	-0.12672825
60	0x3e101181	0.14069177
61	0xbe9afa53	-0.30269107
62	0x3e46a8b2	0.1940029
63	0x3e770ea0	0.24126673
64	0x3efb6bc8	0.49105668
65	0x3f639b9a	0.88909304
66	0xbdc2bd05	-0.09508709
67	0x3daa7319	0.083227344
68	0xbe66e69d	-0.2254891
69	0xbf0d8c17	-0.55291885
70	0xbeca32a8	-0.39491773
71	0x3f3ccc97	0.7374968
72	0xbe4f1de0	-0.2022624
73	0xbe3d628e	-0.18494627
74	0xbec59ae5	-0.38594738
75	0xbcedf938	-0.0290495
76	0x3d9428af	0.07234322
77	0x3e04d302	0.12971118
78	0xbe62a26f	-0.22132276
79	0xbea912b1	-0.33022073
80	0xbe1a1b13	-0.1504939
81	0xbe15e832	-0.14639357
82	0xbf26723a	-0.65018046
83	0x3f1a674c	0.6031387
84	0xbf091957	-0.5355429
85	0xbe12c9ba	-0.14334765
86	0xbe285880	-0.1644001
87	0x3f2d7d1e	0.6776904
88	0xbe56099e	-0.20902106
89	0xbeb634b0	-0.35587072
90	0x3f1a7051	0.6032763
91	0xbda7577b	-0.081709825
92	0x3e6ff3c1	0.23432828
93	0xbe99a8aa	-0.30011493
94	0xbe53b7ad	-0.20675536
95	0x3e495910	0.19662881
96	0x3f0c0cbe	0.54706943
97	0xbea3a991	-0.31965306
98	0x3ec5accd	0.386084
99	0x3e55825a	0.20850506
100	0xbd829545	-0.06376127
101	0xbf06e220	-0.5268879
102	0x3ef7bc41	0.48385814
103	0x3f3772f7	0.716598
104	0x3f252cb1	0.6452132
105	0xbe8d2732	-0.27568966
106	0xbc614c37	-0.013751081
107	0xbea90e97	-0.33018944
108	0xbe1cb384	-0.15302855
109	0xbd932dcc	-0.071864694
110	0xbe5bc043	-0.21460061
111	0xbea9e507	-0.33182546
112	0x3f4bc017	0.7958998
113	0xbf17616c	-0.5913303
114	0x3ccdb452	0.025110397
115	0xbe6ca5eb	-0.23110168
116	0xbf12ae66	-0.5729736
117	0xbe852048	-0.2600119
118	0xbf0c7c5a	-0.54877245
119	0x3b508aac	0.0031820936
120	0x3e01c2be	0.12671944
121	0x3e5089ab	0.20365016
122	0xbeda4250	-0.42628717
123	0x3ea8be05	0.32957473
124	0x3f4b0b62	0.79314244
125	0xbf6c11ae	-0.9221448
126	0xbe80a065	-0.2512237
127	0x3e41669d	0.188868
128	0x3edf795a	0.4364727
129	0xbf45e668	-0.773047
130	0x3e90f6dd	0.28313342
131	0x3caeb46d	0.021326268
132	0x3e381952	0.17978409
133	0x3dc2088c	0.094742864
134	0xbdbb8148	-0.09155518
135	0x3f2a18d5	0.6644414
136	0x3d914d7b	0.07094856
137	0x3f56fd08	0.83979845
138	0x3d7968da	0.06089101
139	0x3f359bdd	0.70940953
140	0xbeb97312	-0.36220604
141	0xbe851170	-0.25989866
142	0x3f42caea	0.7609087
143	0xbdf0d112	-0.11758627
144	0x3f0e1cb5	0.55512553
145	0xbe0f2240	-0.13977909
146	0xbf11cf6b	-0.5695712
147	0xbe2f4c15	-0.17118867
148	0xbef83668	-0.4847901
149	0xbeff3676	-0.49846238
150	0xbf1238de	-0.5711802
151	0x3f34a63a	0.7056614
152	0x3f3605ee	0.711028
153	0x3e3a0142	0.18164542
154	0x3e4306ab	0.19045512
155	0xbedb0ec7	-0.42784712
156	0xbe182fa9	-0.14861931
157	0xbf3892f2	-0.7209922
158	0xbe12f5c9	-0.14351572
159	0xbe8ba7e5	-0.2727653
160	0x3f23bc00	0.6395874
161	0x3ea1cf00	0.3160324
162	0xbf096f0a	-0.5368506
163	0xbe9e4fef	-0.3092036
164	0xbe4eed21	-0.20207645
165	0x3e2d987e	0.16952702
166	0x3f2105e3	0.6289961
167	0x3eb7e36e	0.35915703
168	0x3f3a1045	0.72681075
169	0x3bff342c	0.007788202
170	0xbf114696	-0.5674833
171	0x3c9a5a80	0.018841982
172	0xbe7c4301	-0.24634935
173	0x3ed2d968	0.41181493
174	0xbe5d5ce6	-0.21617469
175	0x3eca213d	0.39478484
176	0xbee22e03	-0.4417573
177	0x3e0d11d4	0.13776332
178	0x3eed2385	0.46316162
179	0xbf27b50e	-0.6551064
180	0x3f089359	0.53349835
181	0x3ebcb715	0.3685843
182	0x3ec6f8ae	0.38861603
183	0x3dfa4d2a	0.12221749
184	0xbe66f8f3	-0.22555904
185	0xbf17e17b	-0.5932843
186	0xbdd3123d	-0.10306213
187	0x3f2ced6c	0.6754978
188	0xbf411eb9	-0.75437504
189	0x3cfa126c	0.030526362
190	0xbc391ada	-0.011297906
191	0xbef37fea	-0.47558528
192	0xbe7c0e2d	-0.24614783
193	0x3ef25b54	0.47335303
194	0x3f718842	0.9434854
195	0xbd5aa895	-0.05338343
196	0x3e6ad55e	0.22932956
197	0x3ee39761	0.4445143
198	0xbc890809	-0.016727464
199	0xbcfb2825	-0.03065879
200	0xbe27b5ac	-0.16377896
201	0x3e79bfd1	0.24389578
202	0x3d798192	0.060914584
203	0x3f4ff425	0.8123191
204	0xbeb6d611	-0.35710195
205	0x3ef48853	0.47760257
206	0xbe4d1ffa	-0.2003173
207	0xbf27bcc9	-0.6552244
208	0x3ecf53ac	0.40493524
209	0x3e646261	0.22303154
210	0x3ceb5796	0.028728288
211	0xbf0a516a	-0.5403048
212	0x3eda1ec3	0.42601594
213	0x3f4b7189	0.79470116
214	0x3eadd474	0.3395115
215	0x3ee5a193	0.44849834
216	0x3e8f5390	0.2799344
217	0xbe1ce4a5	-0.15321596
218	0xbf6930ae	-0.91089904
219	0xbeeb91cc	-0.46009672
220	0x3efc62b0	0.49294043
221	0x3e64e731	0.22353818
222	0xbdaee21b	-0.0853922
223	0x3eeca163	0.46216878
224	0xbe0956dc	-0.1341204
225	0x3f124ebf	0.57151407
226	0x3da95a0a	0.08269127
227	0x3f19c225	0.60061866
228	0x3eb09683	0.3448983
229	0xbe9f9b28	-0.31173062
230	0xbe4c5696	-0.19954905
231	0x3f20c564	0.62801194
232	0xbe0c06b9	-0.1367444
233	0x3ee78c19	0.45224074
234	0x3d83f23b	0.06442686
235	0x3e671a88	0.22568715
236	0x396c2509	0.0002252051
237	0xbf16cb13	-0.58903617
238	0x3bd38945	0.006455573
239	0xbf2a32d1	-0.6648379
240	0xbeff2e2f	-0.49839923
241	0x3f3a03d0	0.7266207
242	0xbf13d8e3	-0.5775282
243	0x3f43af5f	0.7643947
244	0xbe712e5b	-0.2355284
245	0x3ea188fb	0.3154982
246	0x3eb10314	0.3457266
247	0xbe597fb2	-0.21240118
248	0xbf38157c	-0.7190778
249	0x3e7fa0ce	0.24963686
250	0x3e93cb75	0.28866163
251	0x3df96070	0.12176597
252	0xbf32d090	-0.6984949
253	0x3f27b3f4	0.6550896
254	0x3dd32ff1	0.103118785
255	0xbe752a18	-0.23941839

layers.1.bias f4 [10]
0	0xbd32eaec	-0.04368107
1	0xbd4b88d2	-0.04969103
2	0xbd00e363	-0.031466853
3	0xbcbd3e90	-0.023101121
4	0xbd272ffb	-0.040817242
5	0xbced90a9	-0.028999643
6	0xbd19a29c	-0.037508592
7	0xbcec5228	-0.028847769
8	0xbcf5c29b	-0.030000022
9	0xbd221681	-0.039572243
